…
      "Downloading https://ultralytics.com/assets/Arial.ttf to '/root/.config/Ultralytics/Arial.ttf'...\n"
     ]
    },
    {
     "name": "stderr",
     "output_type": "stream",
     "text": [
      "100%|â–ˆâ–ˆâ–ˆâ–ˆâ–ˆâ–ˆâ–ˆâ–ˆâ–ˆâ–ˆ| 755k/755k [00:00<00:00, 30.1MB/s]\n"
     ]
    },
    {
     "name": "stdout",
     "output_type": "stream",
     "text": [
      "Overriding model.yaml nc=80 with nc=6\n",
      "\n",
      "                   from  n    params  module                                       arguments                     \n",
      "  0                  -1  1      2320  ultralytics.nn.modules.conv.Conv             [3, 80, 3, 2]                 \n",
      "  1                  -1  1    115520  ultralytics.nn.modules.conv.Conv             [80, 160, 3, 2]               \n",
      "  2                  -1  3    436800  ultralytics.nn.modules.block.C2f             [160, 160, 3, True]           \n",
      "  3                  -1  1    461440  ultralytics.nn.modules.conv.Conv             [160, 320, 3, 2]              \n",
      "  4                  -1  6   3281920  ultralytics.nn.modules.block.C2f             [320, 320, 6, True]           \n",
      "  5                  -1  1   1844480  ultralytics.nn.modules.conv.Conv             [320, 640, 3, 2]              \n",
      "  6                  -1  6  13117440  ultralytics.nn.modules.block.C2f             [640, 640, 6, True]           \n",
      "  7                  -1  1   3687680  ultralytics.nn.modules.conv.Conv             [640, 640, 3, 2]              \n",
      "  8                  -1  3   6969600  ultralytics.nn.modules.block.C2f             [640, 640, 3, True]           \n",
      "  9                  -1  1   1025920  ultralytics.nn.modules.block.SPPF            [640, 640, 5]                 \n",
      " 10                  -1  1         0  torch.nn.modules.upsampling.Upsample         [None, 2, 'nearest']          \n",
      " 11             [-1, 6]  1         0  ultralytics.nn.modules.conv.Concat           [1]                           \n",
      " 12                  -1  3   7379200  ultralytics.nn.modules.block.C2f             [1280, 640, 3]                \n",
      " 13                  -1  1         0  torch.nn.modules.upsampling.Upsample         [None, 2, 'nearest']          \n",
      " 14             [-1, 4]  1         0  ultralytics.nn.modules.conv.Concat           [1]                           \n",
      " 15                  -1  3   1948800  ultralytics.nn.modules.block.C2f             [960, 320, 3]                 \n",
      " 16                  -1  1    922240  ultralytics.nn.modules.conv.Conv             [320, 320, 3, 2]              \n",
      " 17            [-1, 12]  1         0  ultralytics.nn.modules.conv.Concat           [1]                           \n",
      " 18                  -1  3   7174400  ultralytics.nn.modules.block.C2f             [960, 640, 3]                 \n",
      " 19                  -1  1   3687680  ultralytics.nn.modules.conv.Conv             [640, 640, 3, 2]              \n",
      " 20             [-1, 9]  1         0  ultralytics.nn.modules.conv.Concat           [1]                           \n",
      " 21                  -1  3   7379200  ultralytics.nn.modules.block.C2f             [1280, 640, 3]                \n",
      " 22        [15, 18, 21]  1   8723746  ultralytics.nn.modules.head.Detect           [6, [320, 640, 640]]          \n",
      "Model summary: 209 layers, 68,158,386 parameters, 68,158,370 gradients, 258.1 GFLOPs\n",
      "\n",
      "Transferred 589/595 items from pretrained weights\n",
      "\u001b[34m\u001b[1mTensorBoard: \u001b[0mStart with 'tensorboard --logdir outputs/yolov8x_fold0', view at http://localhost:6006/\n",
      "Freezing layer 'model.0.conv.weight'\n",
      "Freezing layer 'model.0.bn.weight'\n",
…
fl=1.5, pose=12.0, kobj=1.0, nbs=64, hsv_h=0.015, hsv_s=0.8, hsv_v=0.5, degrees=15, translate=0.2, scale=0.6, shear=0.0, perspective=0.0, flipud=0.2, fliplr=0.5, bgr=0.0, mosaic=1.0, mixup=0.3, copy_paste=0.3, copy_paste_mode=flip, auto_augment=randaugment, erasing=0.4, crop_fraction=1.0, cfg=None, tracker=botsort.yaml, save_dir=outputs/yolov8l_fold0\n",
      "Overriding model.yaml nc=80 with nc=6\n",
      "\n",
      "                   from  n    params  module                                       arguments                     \n",
      "  0                  -1  1      1856  ultralytics.nn.modules.conv.Conv             [3, 64, 3, 2]                 \n",
      "  1                  -1  1     73984  ultralytics.nn.modules.conv.Conv             [64, 128, 3, 2]               \n",
      "  2                  -1  3    279808  ultralytics.nn.modules.block.C2f             [128, 128, 3, True]           \n",
      "  3                  -1  1    295424  ultralytics.nn.modules.conv.Conv             [128, 256, 3, 2]              \n",
      "  4                  -1  6   2101248  ultralytics.nn.modules.block.C2f             [256, 256, 6, True]           \n",
      "  5                  -1  1   1180672  ultralytics.nn.modules.conv.Conv             [256, 512, 3, 2]              \n",
      "  6                  -1  6   8396800  ultralytics.nn.modules.block.C2f             [512, 512, 6, True]           \n",
      "  7                  -1  1   2360320  ultralytics.nn.modules.conv.Conv             [512, 512, 3, 2]              \n",
      "  8                  -1  3   4461568  ultralytics.nn.modules.block.C2f             [512, 512, 3, True]           \n",
      "  9                  -1  1    656896  ultralytics.nn.modules.block.SPPF            [512, 512, 5]                 \n",
      " 10                  -1  1         0  torch.nn.modules.upsampling.Upsample         [None, 2, 'nearest']          \n",
      " 11             [-1, 6]  1         0  ultralytics.nn.modules.conv.Concat           [1]                           \n",
      " 12                  -1  3   4723712  ultralytics.nn.modules.block.C2f             [1024, 512, 3]                \n",
      " 13                  -1  1         0  torch.nn.modules.upsampling.Upsample         [None, 2, 'nearest']          \n",
      " 14             [-1, 4]  1         0  ultralytics.nn.modules.conv.Concat           [1]                           \n",
      " 15                  -1  3   1247744  ultralytics.nn.modules.block.C2f             [768, 256, 3]                 \n",
      " 16                  -1  1    590336  ultralytics.nn.modules.conv.Conv             [256, 256, 3, 2]              \n",
      " 17            [-1, 12]  1         0  ultralytics.nn.modules.conv.Concat           [1]                           \n",
      " 18                  -1  3   4592640  ultralytics.nn.modules.block.C2f             [768, 512, 3]                 \n",
      " 19                  -1  1   2360320  ultralytics.nn.modules.conv.Conv             [512, 512, 3, 2]              \n",
      " 20             [-1, 9]  1         0  ultralytics.nn.modules.conv.Concat           [1]                           \n",
      " 21                  -1  3   4723712  ultralytics.nn.modules.block.C2f             [1024, 512, 3]                \n",
      " 22        [15, 18, 21]  1   5587426  ultralytics.nn.modules.head.Detect           [6, [256, 512, 512]]          \n",
      "Model summary: 209 layers, 43,634,466 parameters, 43,634,450 gradients, 165.4 GFLOPs\n",
      "\n",
      "Transferred 589/595 items from pretrained weights\n",
      "\u001b[34m\u001b[1mTensorBoard: \u001b[0mStart with 'tensorboard --logdir outputs/yolov8l_fold0', view at http://localhost:6006/\n",
      "Freezing layer 'model.0.conv.weight'\n",
      "Freezing layer 'model.0.bn.weight'\n",
…
