…
      "Downloading https://ultralytics.com/assets/Arial.ttf to '/root/.config/Ultralytics/Arial.ttf'...\n"
     ]
    },
    {
     "name": "stderr",
     "output_type": "stream",
     "text": [
      "100%|â–ˆâ–ˆâ–ˆâ–ˆâ–ˆâ–ˆâ–ˆâ–ˆâ–ˆâ–ˆ| 755k/755k [00:00<00:00, 17.7MB/s]\n"
     ]
    },
    {
     "name": "stdout",
     "output_type": "stream",
     "text": [
      "Overriding model.yaml nc=80 with nc=6\n",
      "\n",
      "                   from  n    params  module                                       arguments                     \n",
      "  0                  -1  1      2320  ultralytics.nn.modules.conv.Conv             [3, 80, 3, 2]                 \n",
      "  1                  -1  1    115520  ultralytics.nn.modules.conv.Conv             [80, 160, 3, 2]               \n",
      "  2                  -1  3    436800  ultralytics.nn.modules.block.C2f             [160, 160, 3, True]           \n",
      "  3                  -1  1    461440  ultralytics.nn.modules.conv.Conv             [160, 320, 3, 2]              \n",
      "  4                  -1  6   3281920  ultralytics.nn.modules.block.C2f             [320, 320, 6, True]           \n",
      "  5                  -1  1   1844480  ultralytics.nn.modules.conv.Conv             [320, 640, 3, 2]              \n",
      "  6                  -1  6  13117440  ultralytics.nn.modules.block.C2f             [640, 640, 6, True]           \n",
      "  7                  -1  1   3687680  ultralytics.nn.modules.conv.Conv             [640, 640, 3, 2]              \n",
      "  8                  -1  3   6969600  ultralytics.nn.modules.block.C2f             [640, 640, 3, True]           \n",
      "  9                  -1  1   1025920  ultralytics.nn.modules.block.SPPF            [640, 640, 5]                 \n",
      " 10                  -1  1         0  torch.nn.modules.upsampling.Upsample         [None, 2, 'nearest']          \n",
      " 11             [-1, 6]  1         0  ultralytics.nn.modules.conv.Concat           [1]                           \n",
      " 12                  -1  3   7379200  ultralytics.nn.modules.block.C2f             [1280, 640, 3]                \n",
      " 13                  -1  1         0  torch.nn.modules.upsampling.Upsample         [None, 2, 'nearest']          \n",
      " 14             [-1, 4]  1         0  ultralytics.nn.modules.conv.Concat           [1]                           \n",
      " 15                  -1  3   1948800  ultralytics.nn.modules.block.C2f             [960, 320, 3]                 \n",
      " 16                  -1  1    922240  ultralytics.nn.modules.conv.Conv             [320, 320, 3, 2]              \n",
      " 17            [-1, 12]  1         0  ultralytics.nn.modules.conv.Concat           [1]                           \n",
      " 18                  -1  3   7174400  ultralytics.nn.modules.block.C2f             [960, 640, 3]                 \n",
      " 19                  -1  1   3687680  ultralytics.nn.modules.conv.Conv             [640, 640, 3, 2]              \n",
      " 20             [-1, 9]  1         0  ultralytics.nn.modules.conv.Concat           [1]                           \n",
      " 21                  -1  3   7379200  ultralytics.nn.modules.block.C2f             [1280, 640, 3]                \n",
      " 22        [15, 18, 21]  1   8723746  ultralytics.nn.modules.head.Detect           [6, [320, 640, 640]]          \n",
      "Model summary: 209 layers, 68,158,386 parameters, 68,158,370 gradients, 258.1 GFLOPs\n",
      "\n",
      "Transferred 589/595 items from pretrained weights\n",
      "\u001b[34m\u001b[1mTensorBoard: \u001b[0mStart with 'tensorboard --logdir outputs/mosquito_yolo', view at http://localhost:6006/\n",
      "Freezing layer 'model.22.dfl.conv.weight'\n",
      "\u001b[34m\u001b[1mAMP: \u001b[0mrunning Automatic Mixed Precision (AMP) checks...\n",
…
